stereo_params.npz (npz, 4024 bytes, 13 tensors)

K_L f8 [3, 3]
0	0x4086b89145e8dd59	727.0709341232824
1	0x0000000000000000	0.0
2	0x40796bce3c3feb8e	406.73785042733005
3	0x0000000000000000	0.0
4	0x4086cdf2462ad2bc	729.7432978959619
5	0x40769e528ce60b83	361.8951539026386
6	0x0000000000000000	0.0
7	0x0000000000000000	0.0
8	0x3ff0000000000000	1.0

D_L f8 [1, 5]
0	0xbf77c61f1d2615bb	-0.0058041777978181065
1	0xbfad70ce6a8c85c2	-0.05750126886983821
2	0x3f7196cb05b3be11	0.004294198089368277
3	0xbf62973ad1cb7c98	-0.0022693775957659083
4	0x3fb4f179e905aece	0.0818096345807888

K_R f8 [3, 3]
0	0x4086bb7248a74f43	727.4308026381553
1	0x0000000000000000	0.0
2	0x407d567dc1d9ceaa	469.4057024486634
3	0x0000000000000000	0.0
4	0x4086d265408918f3	730.2994394980182
5	0x407696fb8e016c48	361.4364147239289
6	0x0000000000000000	0.0
7	0x0000000000000000	0.0
8	0x3ff0000000000000	1.0

D_R f8 [1, 5]
0	0xbf71ae19597e534b	-0.00431642439061337
1	0xbfb23e62b339e41a	-0.07126442790639978
2	0x3f73454306cfecfd	0.004704725096412729
3	0xbf695a174c63cd61	-0.003094716553386043
4	0x3fbf9eddec4f69d0	0.12351786631862827

R f8 [3, 3]
0	0x3fefffffddec097b	0.9999999365248152
1	0xbf26fb4837e8e8d0	-0.0001753354699348176
2	0xbf3453dab089d56a	-0.00031017388440742497
3	0x3f27018b7a0587ac	0.00017552211375987164
4	0x3fefffff96820540	0.9999998035056379
5	0x3f43b862c374d41a	0.0006018144839915502
6	0x3f34521539b0dd36	0.0003100683040346443
7	0xbf43b8d79877d982	-0.0006018688881670872
8	0x3fefffff84f3c719	0.9999997708057179

T f8 [3, 1]
0	0xc01071920d0c88d2	-4.110908702745478
1	0x3f85985be64c5622	0.010544507947581275
2	0x3facdc209f313747	0.05636693900360839

E f8 [3, 3]
0	0xbedbc89a0cfba43c	-6.6241265839007435e-06
1	0xbfacdcf5334f49b1	-0.05637327433909734
2	0x3f8586929515f21d	0.010510583090529707
3	0x3fad833313deb861	0.05764159791520807
4	0xbf64598f0810a1f7	-0.002484111174016808
5	0x4010718d388492e0	4.110890276996287
6	0xbf8712a9558bf0a0	-0.011266062663246423
7	0xc01071915ac48d3d	-4.1109060461488385
8	0xbf643d81177a06dc	-0.0024707337686898766

F f8 [3, 3]
0	0x3e41e9ce960aeba1	8.341534297813755e-09
1	0x3f128a8a34dd4707	7.072895570317201e-05
2	0xbfa208c2c825c79a	-0.035223090107037794
3	0xbf12f408fd6af891	-7.230095739438532e-05
4	0x3eca0ac59dd4aa38	3.1044576035606208e-06
5	0xc00dc41e8d7bcfc8	-3.7207613995942417
6	0x3fa2a95a9d0b8097	0.03644831816723231
7	0x400dbda21deb96f2	3.7175943696519136
8	0x3ff0000000000000	1.0

R_L f8 [3, 3]
0	0x3fefff29ffcef984	0.9998979564914383
1	0xbf66610c6e43161f	-0.002731823233349542
2	0xbf8cb783e0d8e192	-0.014021902369777437
3	0x3f6669e8b72fd2df	0.002736048243145425
4	0x3feffff81121772f	0.9999962172111959
5	0x3f327d889662a15d	0.0002821405854640713
6	0x3f8cb7154f4a8dfe	0.014021078569675712
7	0xbf3500b3a40acbd9	-0.0003204763961932012
8	0x3fefff31bdef3a7e	0.9999016484888015

R_R f8 [3, 3]
0	0x3fefff33fddc80eb	0.9999027212361659
1	0xbf6502af78a90185	-0.002564757077635873
2	0xbf8c141a5984791b	-0.013710218293053125
3	0x3f64fa057b55cbbb	0.002560625750157778
4	0x3feffff9049f7abe	0.999996670750839
5	0xbf34e5e16aa13a7c	-0.0003188777287776235
6	0x3f8c1481fe14489d	0.013710990492232173
7	0x3f32985de5194c84	0.0002837399707448856
8	0x3fefff3ac87ebe56	0.999905959693886

P_L f8 [3, 4]
0	0x4086d02bc359f5d8	730.0213686969901
1	0x0000000000000000	0.0
2	0x407c12719c000000	449.15273666381836
3	0x0000000000000000	0.0
4	0x0000000000000000	0.0
5	0x4086d02bc359f5d8	730.0213686969901
6	0x4076d1ed44000000	365.1204261779785
7	0x0000000000000000	0.0
8	0x0000000000000000	0.0
9	0x0000000000000000	0.0
10	0x3ff0000000000000	1.0
11	0x0000000000000000	0.0

P_R f8 [3, 4]
0	0x4086d02bc359f5d8	730.0213686969901
1	0x0000000000000000	0.0
2	0x407c12719c000000	449.15273666381836
3	0xc0a772afb3493f07	-3001.343164719528
4	0x0000000000000000	0.0
5	0x4086d02bc359f5d8	730.0213686969901
6	0x4076d1ed44000000	365.1204261779785
7	0x0000000000000000	0.0
8	0x0000000000000000	0.0
9	0x0000000000000000	0.0
10	0x3ff0000000000000	1.0
11	0x0000000000000000	0.0

Q f8 [4, 4]
0	0x3ff0000000000000	1.0
1	0x0000000000000000	0.0
2	0x0000000000000000	0.0
3	0xc07c12719c000000	-449.15273666381836
4	0x0000000000000000	0.0
5	0x3ff0000000000000	1.0
6	0x0000000000000000	0.0
7	0xc076d1ed44000000	-365.1204261779785
8	0x0000000000000000	0.0
9	0x0000000000000000	0.0
10	0x0000000000000000	0.0
11	0x4086d02bc359f5d8	730.0213686969901
12	0x0000000000000000	0.0
13	0x0000000000000000	0.0
14	0x3fcf22362da78167	0.24323155621733436
15	0x8000000000000000	-0.0
