stereo_params.npz (npz, 4168 bytes, 13 tensors)

K_L f8 [3, 3]
726.3285433222748 0.0 406.7417278199306 0.0 729.0001758541928 361.919993636791 0.0 0.0
1.0
00000000: ea43 52db a0b2 8640 0000 0000 0000 0000
00000010: 2a92 fd1d de6b 7940 0000 0000 0000 0000
00000020: 0ec0 325c 00c8 8640 ba68 3f4b b89e 7640
00000030: 0000 0000 0000 0000 0000 0000 0000 0000
00000040: 0000 0000 0000 f03f

D_L f8 [1, 14]
92.81147300264328 -39.314711404209376 0.004295118239243364 -0.0022656213190367803 69.41365613241067 92.6674614650898 -37.78688247197439 69.6603559267292
0.0 0.0 0.0 0.0 0.0 0.0
00000000: 26fc 752c ef33 5740 f660 9a76 48a8 43c0
00000010: a388 eb05 c297 713f 6461 0d2f 5a8f 62bf
00000020: 981f 9257 795a 5140 a9f9 4ab0 b72a 5740
00000030: 7b76 9990 b8e4 42c0 6341 8145 436a 5140
00000040: 0000 0000 0000 0000 0000 0000 0000 0000
00000050: 0000 0000 0000 0000 0000 0000 0000 0000
00000060: 0000 0000 0000 0000 0000 0000 0000 0000

K_R f8 [3, 3]
727.0853733990118 0.0 469.4064256195007 0.0 729.9552920397247 361.45732401184944 0.0 0.0
1.0
00000000: a2a5 3fd8 aeb8 8640 0000 0000 0000 0000
00000010: 3180 26b8 8056 7d40 0000 0000 0000 0000
00000020: f925 2770 a4cf 8640 1aa9 fb32 5197 7640
00000030: 0000 0000 0000 0000 0000 0000 0000 0000
00000040: 0000 0000 0000 f03f

D_R f8 [1, 14]
39.582911269467324 -112.93434343167911 0.004703839607803653 -0.0030913443604573794 72.0717267688697 39.54385950940784 -112.16000106039256 70.61090619427293
0.0 0.0 0.0 0.0 0.0 0.0
00000000: 7f6a 23d6 9cca 4340 d492 6448 cc3b 5cc0
00000010: 1d93 7f54 5544 733f 7a0b b9dd 0453 69bf
00000020: c2a2 df2b 9704 5240 3c43 3b30 9dc5 4340
00000030: 876d 1675 3d0a 5cc0 de54 4b16 19a7 5140
00000040: 0000 0000 0000 0000 0000 0000 0000 0000
00000050: 0000 0000 0000 0000 0000 0000 0000 0000
00000060: 0000 0000 0000 0000 0000 0000 0000 0000

R f8 [3, 3]
0.9999999381853648 -0.0001753256888895951 -0.00030477888606355024 0.00017551085139650015 0.9999998000029477 0.0006076100769303126 0.00030467229545336953 -0.0006076635313728919
0.9999997689598858
00000000: e042 d0de ffff ef3f fef4 2933 f4fa 26bf
00000010: 32a3 2059 57f9 33bf 3698 d2bb 2a01 273f
00000020: 4c9d a094 ffff ef3f 508f 5eb4 00e9 433f
00000030: 8a1e 838b 8df7 333f c48c 427f 73e9 43bf
00000040: a816 f683 ffff ef3f

T f8 [3, 1]
-4.111006474664431 0.010492843663063089 0.05607104991364329
00000000: db4f 69ae ab71 10c0 e6c9 ffa2 457d 853f
00000010: 8d51 433b 58b5 ac3f

E f8 [3, 3]
-6.6441989443804155e-06 -0.05607741481803303 0.0104587719038437 0.057323556226891476 -0.002507939407344284 4.1109884355848925 -0.011214369260916663 -4.111003812810211
-0.0024946909631286007
00000000: 2c59 c87f 27de dbbe 4917 60cd 2db6 acbf
00000010: c043 449a 686b 853f 84e0 915e 8359 ad3f
00000020: 003f 84b7 878b 64bf 0749 d4f3 a671 1040
00000030: b769 c429 8ff7 86bf 3101 c7fb aa71 10c0
00000040: 055d 3503 bf6f 64bf

F f8 [3, 3]
3.311121660268282e-08 0.00027843637637025524 -0.13864216959242207 -0.0002845475052544791 1.2403497830790686e-05 -14.710554284816965 0.1434705360762411 14.706094031647524
1.0
00000000: 49db 815d c5c6 613e 9037 6a21 633f 323f
00000010: e97a 1fd0 06bf c1bf 6c94 ae3a eaa5 32bf
00000020: ecad e1c2 1303 ea3e a0a4 6ec5 cd6b 2dc0
00000030: a68a 3116 3e5d c23f 60a7 2b28 8569 2d40
00000040: 0000 0000 0000 f03f

R_L f8 [3, 3]
0.9998990771587282 -0.002719153624233139 -0.01394423539286587 0.002723395650412898 0.9999962508718658 0.0002852338400832082 0.013943407519510615 -0.00032318072349091394
0.9999027337401197
00000000: 6e50 7659 2cff ef3f ffb6 717c 7a46 66bf
00000010: 9b36 d797 cb8e 8cbf ea3b 15e8 5f4f 663f
00000020: b8c0 3323 f8ff ef3f 1383 ce03 6eb1 323f
00000030: 7d2b 547a 5c8e 8c3f 1ef0 59a3 122e 35bf
00000040: af08 9304 34ff ef3f

R_R f8 [3, 3]
0.9999037419963436 -0.0025521326000170134 -0.013637938293652252 0.0025479835172540002 0.9999967021720082 -0.00032159773574295123 0.013638714078143061 0.00028681753740536584
0.9999069472775929
00000000: d3b6 e021 36ff ef3f 6f09 abc1 35e8 64bf
00000010: 0d19 a617 35ee 8bbf 9046 133c 82df 643f
00000020: daf8 7d15 f9ff ef3f 6872 eac1 8313 35bf
00000030: eaa4 6637 9dee 8b3f 1062 6df1 ffcb 323f
00000040: f336 b3da 3cff ef3f

P_L f8 [3, 4]
729.4777339469588 0.0 475.49260330200195 0.0 0.0 729.4777339469588 379.56495094299316 0.0
0.0 0.0 1.0 0.0
00000000: 04f3 2c66 d2cb 8640 0000 0000 0000 0000
00000010: 0000 00b4 e1b7 7d40 0000 0000 0000 0000
00000020: 0000 0000 0000 0000 04f3 2c66 d2cb 8640
00000030: 0000 000a 0ab9 7740 0000 0000 0000 0000
00000040: 0000 0000 0000 0000 0000 0000 0000 0000
00000050: 0000 0000 0000 f03f 0000 0000 0000 0000

P_R f8 [3, 4]
729.4777339469588 0.0 475.49260330200195 -2999.1763821106406 0.0 729.4777339469588 379.56495094299316 0.0
0.0 0.0 1.0 0.0
00000000: 04f3 2c66 d2cb 8640 0000 0000 0000 0000
00000010: 0000 00b4 e1b7 7d40 9a89 c14e 5a6e a7c0
00000020: 0000 0000 0000 0000 04f3 2c66 d2cb 8640
00000030: 0000 000a 0ab9 7740 0000 0000 0000 0000
00000040: 0000 0000 0000 0000 0000 0000 0000 0000
00000050: 0000 0000 0000 f03f 0000 0000 0000 0000

Q f8 [4, 4]
1.0 0.0 0.0 -475.49260330200195 0.0 1.0 0.0 -379.56495094299316
0.0 0.0 0.0 729.4777339469588 0.0 0.0 0.24322601974932734 -0.0
00000000: 0000 0000 0000 f03f 0000 0000 0000 0000
00000010: 0000 0000 0000 0000 0000 00b4 e1b7 7dc0
00000020: 0000 0000 0000 0000 0000 0000 0000 f03f
00000030: 0000 0000 0000 0000 0000 000a 0ab9 77c0
00000040: 0000 0000 0000 0000 0000 0000 0000 0000
00000050: 0000 0000 0000 0000 04f3 2c66 d2cb 8640
00000060: 0000 0000 0000 0000 0000 0000 0000 0000
00000070: bc07 2ebc 0722 cf3f 0000 0000 0000 0080
