stereo_params.npz (npz, 4024 bytes, 13 tensors)

K_L f8 [3, 3]
00000000: 291f 9c74 003a 8740 0000 0000 0000 0000
00000010: c533 115b 64da 7940 0000 0000 0000 0000
00000020: a94a b6eb 9913 8740 74f0 b287 59f6 7540
00000030: 0000 0000 0000 0000 0000 0000 0000 0000
00000040: 0000 0000 0000 f03f
743.2502224156389 0.0 413.6495009109461 0.0 738.4501566163573 351.39685792825844 0.0 0.0
1.0

D_L f8 [1, 5]
00000000: 8bb1 983e 01b8 853f 59f1 2d39 0818 c0bf
00000010: 3327 aaa7 e128 5a3f 047e 375c 496f 55bf
00000020: 3768 7e04 f3c6 c73f
0.01060486767081483 -0.12573340217557918 0.001596660963203833 -0.001308271065560863 0.18575895041868914

K_R f8 [3, 3]
00000000: 803c 81c9 1a39 8740 0000 0000 0000 0000
00000010: b38a a044 21de 7d40 0000 0000 0000 0000
00000020: c17c e624 7b13 8740 f98b d659 7df4 7540
00000030: 0000 0000 0000 0000 0000 0000 0000 0000
00000040: 0000 0000 0000 f03f
743.1380796524609 0.0 477.8831220885433 0.0 738.4351289755651 351.28060325438815 0.0 0.0
1.0

D_R f8 [1, 5]
00000000: a8e6 a67e 0c23 6a3f 39d4 b09a 9db8 b8bf
00000010: c42d b98d c34f 603f b713 33da 91d9 62bf
00000020: d561 9024 34e1 c33f
0.0031905406987931713 -0.09656701113347389 0.0019911593824752678 -0.0023010109594871725 0.1553101709876176

R f8 [3, 3]
00000000: 0c3d 2dbc feff ef3f 2156 a12a e98f 21bf
00000010: fd1c 51b2 55dc 51bf 091f 1b2b aba5 213f
00000020: 8ea2 2c9c ffff ef3f 4ec2 b0a3 4c7d 433f
00000030: f93c e4e8 ffdb 513f 0aea 1c0f 877e 43bf
00000040: 6643 0962 feff ef3f
0.9999993968321248 -0.00013398858328865593 -0.0010901295547841021 0.0001346370168475652 0.9999998140602473 0.0005947708335779041 0.001090049659584312 -0.0005949172466224739
0.9999992289323074

T f8 [3, 1]
00000000: efcf ef54 0167 10c0 06a6 2295 d1f9 90bf
00000010: 3379 b5d5 26bd 933f
-4.1005910178537155 -0.01657798264264978 0.019276243966822548

E f8 [3, 3]
00000000: 500c 7cf9 84ab f5be 18fa 31bb 90ba 93bf
00000010: 65bb d41f d2fc 90bf 52c1 2d77 e450 983f
00000020: 836a d0d4 7101 64bf bef9 8cfe fa66 1040
00000030: 19ef 50b0 1669 903f 51c3 d5b6 0167 10c0
00000040: f861 9249 ab20 64bf
-2.066612031993389e-05 -0.019266377854814193 -0.016589434807595355 0.023746080183117364 -0.002442095114486621 4.100566842417207 0.016025881301387466 -4.1005924766512445
-0.0024569840866883706

F f8 [3, 3]
00000000: bfb0 b26a 1c64 833e 3a5b 96e7 cbc4 213f
00000010: 5b27 7c0c 7db6 a33f 4d92 fb35 b9e5 25bf
00000020: 95b5 d7cf 0222 f23e c897 8c90 0f61 35c0
00000030: d56e 596c 5b3b 99bf 2593 9fa1 fa5e 3540
00000040: 0000 0000 0000 f03f
1.44474645002117e-07 0.00013556469984329374 0.038501651548428405 -0.00016706357836606054 1.7292838483775453e-05 -21.37914374763912 -0.02464049195110259 21.371011830767333
1.0

R_L f8 [3, 3]
00000000: 6de0 70d2 ccff ef3f f7d3 1c51 9105 703f
00000010: aa9b 63aa a2b5 77bf a546 682b c103 70bf
00000020: 05d8 acde efff ef3f cdf8 8eb2 e850 343f
00000030: 1d52 8936 dcb6 773f f570 2c05 15d5 32bf
00000040: 7d1a dfc3 dcff ef3f
0.9999755964445406 0.003911559719019123 -0.005788455402785534 -0.0039098306356365785 0.999992308533138 0.000309998331939354 0.005789623458060803 -0.00028735888661103544
0.9999831987014002

R_R f8 [3, 3]
00000000: 8070 feb0 d7ff ef3f c502 f96a 218f 703f
00000010: 7ee1 6b4b 1941 73bf 9b2a ce42 9a90 70bf
00000020: 476f 39c3 eeff ef3f fe7b 748e 93f3 32bf
00000030: f842 831a d53f 733f b975 527c 6d32 343f
00000040: 4f13 e0bd e8ff ef3f
0.9999807793533506 0.0040427499184835835 -0.004700754935349825 -0.004044153768414073 0.9999917805648487 -0.0002891764874721202 0.00469954722957832 0.0003081815050992271
0.9999889095784996

P_L f8 [3, 4]
00000000: b563 4e88 8a13 8740 0000 0000 0000 0000
00000010: 0000 00cc 5617 7c40 0000 0000 0000 0000
00000020: 0000 0000 0000 0000 b563 4e88 8a13 8740
00000030: 0000 00a4 f00c 7640 0000 0000 0000 0000
00000040: 0000 0000 0000 0000 0000 0000 0000 0000
00000050: 0000 0000 0000 f03f 0000 0000 0000 0000
738.4426427959612 0.0 449.45869064331055 0.0 0.0 738.4426427959612 352.8087501525879 0.0
0.0 0.0 1.0 0.0

P_R f8 [3, 4]
00000000: b563 4e88 8a13 8740 0000 0000 0000 0000
00000010: 0000 00cc 5617 7c40 4e7d 830c 38a8 a7c0
00000020: 0000 0000 0000 0000 b563 4e88 8a13 8740
00000030: 0000 00a4 f00c 7640 0000 0000 0000 0000
00000040: 0000 0000 0000 0000 0000 0000 0000 0000
00000050: 0000 0000 0000 f03f 0000 0000 0000 0000
738.4426427959612 0.0 449.45869064331055 -3028.109470471426 0.0 738.4426427959612 352.8087501525879 0.0
0.0 0.0 1.0 0.0

Q f8 [4, 4]
00000000: 0000 0000 0000 f03f 0000 0000 0000 0000
00000010: 0000 0000 0000 0000 0000 00cc 5617 7cc0
00000020: 0000 0000 0000 0000 0000 0000 0000 f03f
00000030: 0000 0000 0000 0000 0000 00a4 f00c 76c0
00000040: 0000 0000 0000 0000 0000 0000 0000 0000
00000050: 0000 0000 0000 0000 b563 4e88 8a13 8740
00000060: 0000 0000 0000 0000 0000 0000 0000 0000
00000070: 8b81 c6bd e336 cf3f 0000 0000 0000 0080
1.0 0.0 0.0 -449.45869064331055 0.0 1.0 0.0 -352.8087501525879
0.0 0.0 0.0 738.4426427959612 0.0 0.0 0.2438625980985417 -0.0
